getting server data
server data num: 10673 17775
getting client 0 data
client 0 data num: 1692 1819
getting client 1 data
client 1 data num: 1781 2498
getting client 2 data
client 2 data num: 1800 4066
getting client 3 data
client 3 data num: 1800 3338
getting client 4 data
client 4 data num: 1800 2213
getting client 5 data
client 5 data num: 1800 3841
MobileNetV3(
  (features): Sequential(
    (0): Conv2dNormActivation(
      (0): Conv2d(3, 16, kernel_size=(3, 3), stride=(2, 2), padding=(1, 1), bias=False)
      (1): BatchNorm2d(16, eps=0.001, momentum=0.01, affine=True, track_running_stats=True)
      (2): Hardswish()
    )
    (1): InvertedResidual(
      (block): Sequential(
        (0): Conv2dNormActivation(
          (0): Conv2d(16, 16, kernel_size=(3, 3), stride=(2, 2), padding=(1, 1), groups=16, bias=False)
          (1): BatchNorm2d(16, eps=0.001, momentum=0.01, affine=True, track_running_stats=True)
          (2): ReLU(inplace=True)
        )
        (1): SqueezeExcitation(
          (avgpool): AdaptiveAvgPool2d(output_size=1)
          (fc1): Conv2d(16, 8, kernel_size=(1, 1), stride=(1, 1))
          (fc2): Conv2d(8, 16, kernel_size=(1, 1), stride=(1, 1))
          (activation): ReLU()
          (scale_activation): Hardsigmoid()
        )
        (2): Conv2dNormActivation(
          (0): Conv2d(16, 16, kernel_size=(1, 1), stride=(1, 1), bias=False)
          (1): BatchNorm2d(16, eps=0.001, momentum=0.01, affine=True, track_running_stats=True)
        )
      )
    )
    (2): InvertedResidual(
      (block): Sequential(
        (0): Conv2dNormActivation(
          (0): Conv2d(16, 72, kernel_size=(1, 1), stride=(1, 1), bias=False)
          (1): BatchNorm2d(72, eps=0.001, momentum=0.01, affine=True, track_running_stats=True)
          (2): ReLU(inplace=True)
        )
        (1): Conv2dNormActivation(
          (0): Conv2d(72, 72, kernel_size=(3, 3), stride=(2, 2), padding=(1, 1), groups=72, bias=False)
          (1): BatchNorm2d(72, eps=0.001, momentum=0.01, affine=True, track_running_stats=True)
          (2): ReLU(inplace=True)
        )
        (2): Conv2dNormActivation(
          (0): Conv2d(72, 24, kernel_size=(1, 1), stride=(1, 1), bias=False)
          (1): BatchNorm2d(24, eps=0.001, momentum=0.01, affine=True, track_running_stats=True)
        )
      )
    )
    (3): InvertedResidual(
      (block): Sequential(
        (0): Conv2dNormActivation(
          (0): Conv2d(24, 88, kernel_size=(1, 1), stride=(1, 1), bias=False)
          (1): BatchNorm2d(88, eps=0.001, momentum=0.01, affine=True, track_running_stats=True)
          (2): ReLU(inplace=True)
        )
        (1): Conv2dNormActivation(
          (0): Conv2d(88, 88, kernel_size=(3, 3), stride=(1, 1), padding=(1, 1), groups=88, bias=False)
          (1): BatchNorm2d(88, eps=0.001, momentum=0.01, affine=True, track_running_stats=True)
          (2): ReLU(inplace=True)
        )
        (2): Conv2dNormActivation(
          (0): Conv2d(88, 24, kernel_size=(1, 1), stride=(1, 1), bias=False)
          (1): BatchNorm2d(24, eps=0.001, momentum=0.01, affine=True, track_running_stats=True)
        )
      )
    )
    (4): InvertedResidual(
      (block): Sequential(
        (0): Conv2dNormActivation(
          (0): Conv2d(24, 96, kernel_size=(1, 1), stride=(1, 1), bias=False)
          (1): BatchNorm2d(96, eps=0.001, momentum=0.01, affine=True, track_running_stats=True)
          (2): Hardswish()
        )
        (1): Conv2dNormActivation(
          (0): Conv2d(96, 96, kernel_size=(5, 5), stride=(2, 2), padding=(2, 2), groups=96, bias=False)
          (1): BatchNorm2d(96, eps=0.001, momentum=0.01, affine=True, track_running_stats=True)
          (2): Hardswish()
        )
        (2): SqueezeExcitation(
          (avgpool): AdaptiveAvgPool2d(output_size=1)
          (fc1): Conv2d(96, 24, kernel_size=(1, 1), stride=(1, 1))
          (fc2): Conv2d(24, 96, kernel_size=(1, 1), stride=(1, 1))
          (activation): ReLU()
          (scale_activation): Hardsigmoid()
        )
        (3): Conv2dNormActivation(
          (0): Conv2d(96, 40, kernel_size=(1, 1), stride=(1, 1), bias=False)
          (1): BatchNorm2d(40, eps=0.001, momentum=0.01, affine=True, track_running_stats=True)
        )
      )
    )
    (5): InvertedResidual(
      (block): Sequential(
        (0): Conv2dNormActivation(
          (0): Conv2d(40, 240, kernel_size=(1, 1), stride=(1, 1), bias=False)
          (1): BatchNorm2d(240, eps=0.001, momentum=0.01, affine=True, track_running_stats=True)
          (2): Hardswish()
        )
        (1): Conv2dNormActivation(
          (0): Conv2d(240, 240, kernel_size=(5, 5), stride=(1, 1), padding=(2, 2), groups=240, bias=False)
          (1): BatchNorm2d(240, eps=0.001, momentum=0.01, affine=True, track_running_stats=True)
          (2): Hardswish()
        )
        (2): SqueezeExcitation(
          (avgpool): AdaptiveAvgPool2d(output_size=1)
          (fc1): Conv2d(240, 64, kernel_size=(1, 1), stride=(1, 1))
          (fc2): Conv2d(64, 240, kernel_size=(1, 1), stride=(1, 1))
          (activation): ReLU()
          (scale_activation): Hardsigmoid()
        )
        (3): Conv2dNormActivation(
          (0): Conv2d(240, 40, kernel_size=(1, 1), stride=(1, 1), bias=False)
          (1): BatchNorm2d(40, eps=0.001, momentum=0.01, affine=True, track_running_stats=True)
        )
      )
    )
    (6): InvertedResidual(
      (block): Sequential(
        (0): Conv2dNormActivation(
          (0): Conv2d(40, 240, kernel_size=(1, 1), stride=(1, 1), bias=False)
          (1): BatchNorm2d(240, eps=0.001, momentum=0.01, affine=True, track_running_stats=True)
          (2): Hardswish()
        )
        (1): Conv2dNormActivation(
          (0): Conv2d(240, 240, kernel_size=(5, 5), stride=(1, 1), padding=(2, 2), groups=240, bias=False)
          (1): BatchNorm2d(240, eps=0.001, momentum=0.01, affine=True, track_running_stats=True)
          (2): Hardswish()
        )
        (2): SqueezeExcitation(
          (avgpool): AdaptiveAvgPool2d(output_size=1)
          (fc1): Conv2d(240, 64, kernel_size=(1, 1), stride=(1, 1))
          (fc2): Conv2d(64, 240, kernel_size=(1, 1), stride=(1, 1))
          (activation): ReLU()
          (scale_activation): Hardsigmoid()
        )
        (3): Conv2dNormActivation(
          (0): Conv2d(240, 40, kernel_size=(1, 1), stride=(1, 1), bias=False)
          (1): BatchNorm2d(40, eps=0.001, momentum=0.01, affine=True, track_running_stats=True)
        )
      )
    )
    (7): InvertedResidual(
      (block): Sequential(
        (0): Conv2dNormActivation(
          (0): Conv2d(40, 120, kernel_size=(1, 1), stride=(1, 1), bias=False)
          (1): BatchNorm2d(120, eps=0.001, momentum=0.01, affine=True, track_running_stats=True)
          (2): Hardswish()
        )
        (1): Conv2dNormActivation(
          (0): Conv2d(120, 120, kernel_size=(5, 5), stride=(1, 1), padding=(2, 2), groups=120, bias=False)
          (1): BatchNorm2d(120, eps=0.001, momentum=0.01, affine=True, track_running_stats=True)
          (2): Hardswish()
        )
        (2): SqueezeExcitation(
          (avgpool): AdaptiveAvgPool2d(output_size=1)
          (fc1): Conv2d(120, 32, kernel_size=(1, 1), stride=(1, 1))
          (fc2): Conv2d(32, 120, kernel_size=(1, 1), stride=(1, 1))
          (activation): ReLU()
          (scale_activation): Hardsigmoid()
        )
        (3): Conv2dNormActivation(
          (0): Conv2d(120, 48, kernel_size=(1, 1), stride=(1, 1), bias=False)
          (1): BatchNorm2d(48, eps=0.001, momentum=0.01, affine=True, track_running_stats=True)
        )
      )
    )
    (8): InvertedResidual(
      (block): Sequential(
        (0): Conv2dNormActivation(
          (0): Conv2d(48, 144, kernel_size=(1, 1), stride=(1, 1), bias=False)
          (1): BatchNorm2d(144, eps=0.001, momentum=0.01, affine=True, track_running_stats=True)
          (2): Hardswish()
        )
        (1): Conv2dNormActivation(
          (0): Conv2d(144, 144, kernel_size=(5, 5), stride=(1, 1), padding=(2, 2), groups=144, bias=False)
          (1): BatchNorm2d(144, eps=0.001, momentum=0.01, affine=True, track_running_stats=True)
          (2): Hardswish()
        )
        (2): SqueezeExcitation(
          (avgpool): AdaptiveAvgPool2d(output_size=1)
          (fc1): Conv2d(144, 40, kernel_size=(1, 1), stride=(1, 1))
          (fc2): Conv2d(40, 144, kernel_size=(1, 1), stride=(1, 1))
          (activation): ReLU()
          (scale_activation): Hardsigmoid()
        )
        (3): Conv2dNormActivation(
          (0): Conv2d(144, 48, kernel_size=(1, 1), stride=(1, 1), bias=False)
          (1): BatchNorm2d(48, eps=0.001, momentum=0.01, affine=True, track_running_stats=True)
        )
      )
    )
    (9): InvertedResidual(
      (block): Sequential(
        (0): Conv2dNormActivation(
          (0): Conv2d(48, 288, kernel_size=(1, 1), stride=(1, 1), bias=False)
          (1): BatchNorm2d(288, eps=0.001, momentum=0.01, affine=True, track_running_stats=True)
          (2): Hardswish()
        )
        (1): Conv2dNormActivation(
          (0): Conv2d(288, 288, kernel_size=(5, 5), stride=(2, 2), padding=(2, 2), groups=288, bias=False)
          (1): BatchNorm2d(288, eps=0.001, momentum=0.01, affine=True, track_running_stats=True)
          (2): Hardswish()
        )
        (2): SqueezeExcitation(
          (avgpool): AdaptiveAvgPool2d(output_size=1)
          (fc1): Conv2d(288, 72, kernel_size=(1, 1), stride=(1, 1))
          (fc2): Conv2d(72, 288, kernel_size=(1, 1), stride=(1, 1))
          (activation): ReLU()
          (scale_activation): Hardsigmoid()
        )
        (3): Conv2dNormActivation(
          (0): Conv2d(288, 96, kernel_size=(1, 1), stride=(1, 1), bias=False)
          (1): BatchNorm2d(96, eps=0.001, momentum=0.01, affine=True, track_running_stats=True)
        )
      )
    )
    (10): InvertedResidual(
      (block): Sequential(
        (0): Conv2dNormActivation(
          (0): Conv2d(96, 576, kernel_size=(1, 1), stride=(1, 1), bias=False)
          (1): BatchNorm2d(576, eps=0.001, momentum=0.01, affine=True, track_running_stats=True)
          (2): Hardswish()
        )
        (1): Conv2dNormActivation(
          (0): Conv2d(576, 576, kernel_size=(5, 5), stride=(1, 1), padding=(2, 2), groups=576, bias=False)
          (1): BatchNorm2d(576, eps=0.001, momentum=0.01, affine=True, track_running_stats=True)
          (2): Hardswish()
        )
        (2): SqueezeExcitation(
          (avgpool): AdaptiveAvgPool2d(output_size=1)
          (fc1): Conv2d(576, 144, kernel_size=(1, 1), stride=(1, 1))
          (fc2): Conv2d(144, 576, kernel_size=(1, 1), stride=(1, 1))
          (activation): ReLU()
          (scale_activation): Hardsigmoid()
        )
        (3): Conv2dNormActivation(
          (0): Conv2d(576, 96, kernel_size=(1, 1), stride=(1, 1), bias=False)
          (1): BatchNorm2d(96, eps=0.001, momentum=0.01, affine=True, track_running_stats=True)
        )
      )
    )
    (11): InvertedResidual(
      (block): Sequential(
        (0): Conv2dNormActivation(
          (0): Conv2d(96, 576, kernel_size=(1, 1), stride=(1, 1), bias=False)
          (1): BatchNorm2d(576, eps=0.001, momentum=0.01, affine=True, track_running_stats=True)
          (2): Hardswish()
        )
        (1): Conv2dNormActivation(
          (0): Conv2d(576, 576, kernel_size=(5, 5), stride=(1, 1), padding=(2, 2), groups=576, bias=False)
          (1): BatchNorm2d(576, eps=0.001, momentum=0.01, affine=True, track_running_stats=True)
          (2): Hardswish()
        )
        (2): SqueezeExcitation(
          (avgpool): AdaptiveAvgPool2d(output_size=1)
          (fc1): Conv2d(576, 144, kernel_size=(1, 1), stride=(1, 1))
          (fc2): Conv2d(144, 576, kernel_size=(1, 1), stride=(1, 1))
          (activation): ReLU()
          (scale_activation): Hardsigmoid()
        )
        (3): Conv2dNormActivation(
          (0): Conv2d(576, 96, kernel_size=(1, 1), stride=(1, 1), bias=False)
          (1): BatchNorm2d(96, eps=0.001, momentum=0.01, affine=True, track_running_stats=True)
        )
      )
    )
    (12): Conv2dNormActivation(
      (0): Conv2d(96, 576, kernel_size=(1, 1), stride=(1, 1), bias=False)
      (1): BatchNorm2d(576, eps=0.001, momentum=0.01, affine=True, track_running_stats=True)
      (2): Hardswish()
    )
  )
  (avgpool): AdaptiveAvgPool2d(output_size=1)
  (classifier): Sequential(
    (0): Linear(in_features=576, out_features=1024, bias=True)
    (1): Hardswish()
    (2): Dropout(p=0.2, inplace=True)
    (3): Identity()
  )
)
mobilenetv3
loss: 3.193211793899536 lr: 0.005
final server model: top1 40.401785714285715, top5 73.93973214285714
loss: 1.9878202676773071 lr: 0.005
loss: 0.8203194737434387 lr: 0.005
loss: 0.6160464286804199 lr: 0.005
loss: 0.4493734538555145 lr: 0.005
loss: 0.24660220742225647 lr: 0.005
…
loss: 0.07934077084064484 lr: 0.005
loss: 0.0475878044962883 lr: 0.005
final server model: top1 66.12723214285714, top5 89.95535714285714
loss: 0.044420141726732254 lr: 0.005
loss: 0.020052554085850716 lr: 0.005
loss: 0.016811002045869827 lr: 0.005
loss: 0.02089851349592209 lr: 0.005
loss: 0.12971584498882294 lr: 0.005
final server model: top1 67.07589285714286, top5 90.68080357142857
loss: 0.08549662679433823 lr: 0.005
loss: 0.01173646654933691 lr: 0.005
loss: 0.01338634081184864 lr: 0.005
loss: 0.008147204294800758 lr: 0.005
final server model: top1 67.578125, top5 90.29017857142857
ResNet(
  (conv1): Conv2d(3, 64, kernel_size=(7, 7), stride=(2, 2), padding=(3, 3), bias=False)
  (bn1): BatchNorm2d(64, eps=1e-05, momentum=0.1, affine=True, track_running_stats=True)
  (relu): ReLU(inplace=True)
  (maxpool): MaxPool2d(kernel_size=3, stride=2, padding=1, dilation=1, ceil_mode=False)
  (layer1): Sequential(
    (0): BasicBlock(
      (conv1): Conv2d(64, 64, kernel_size=(3, 3), stride=(1, 1), padding=(1, 1), bias=False)
      (bn1): BatchNorm2d(64, eps=1e-05, momentum=0.1, affine=True, track_running_stats=True)
      (relu): ReLU(inplace=True)
      (conv2): Conv2d(64, 64, kernel_size=(3, 3), stride=(1, 1), padding=(1, 1), bias=False)
      (bn2): BatchNorm2d(64, eps=1e-05, momentum=0.1, affine=True, track_running_stats=True)
    )
    (1): BasicBlock(
      (conv1): Conv2d(64, 64, kernel_size=(3, 3), stride=(1, 1), padding=(1, 1), bias=False)
      (bn1): BatchNorm2d(64, eps=1e-05, momentum=0.1, affine=True, track_running_stats=True)
      (relu): ReLU(inplace=True)
      (conv2): Conv2d(64, 64, kernel_size=(3, 3), stride=(1, 1), padding=(1, 1), bias=False)
      (bn2): BatchNorm2d(64, eps=1e-05, momentum=0.1, affine=True, track_running_stats=True)
    )
  )
  (layer2): Sequential(
    (0): BasicBlock(
      (conv1): Conv2d(64, 128, kernel_size=(3, 3), stride=(2, 2), padding=(1, 1), bias=False)
      (bn1): BatchNorm2d(128, eps=1e-05, momentum=0.1, affine=True, track_running_stats=True)
      (relu): ReLU(inplace=True)
      (conv2): Conv2d(128, 128, kernel_size=(3, 3), stride=(1, 1), padding=(1, 1), bias=False)
      (bn2): BatchNorm2d(128, eps=1e-05, momentum=0.1, affine=True, track_running_stats=True)
      (downsample): Sequential(
        (0): Conv2d(64, 128, kernel_size=(1, 1), stride=(2, 2), bias=False)
        (1): BatchNorm2d(128, eps=1e-05, momentum=0.1, affine=True, track_running_stats=True)
      )
    )
    (1): BasicBlock(
      (conv1): Conv2d(128, 128, kernel_size=(3, 3), stride=(1, 1), padding=(1, 1), bias=False)
      (bn1): BatchNorm2d(128, eps=1e-05, momentum=0.1, affine=True, track_running_stats=True)
      (relu): ReLU(inplace=True)
      (conv2): Conv2d(128, 128, kernel_size=(3, 3), stride=(1, 1), padding=(1, 1), bias=False)
      (bn2): BatchNorm2d(128, eps=1e-05, momentum=0.1, affine=True, track_running_stats=True)
    )
  )
  (layer3): Sequential(
    (0): BasicBlock(
      (conv1): Conv2d(128, 256, kernel_size=(3, 3), stride=(2, 2), padding=(1, 1), bias=False)
      (bn1): BatchNorm2d(256, eps=1e-05, momentum=0.1, affine=True, track_running_stats=True)
      (relu): ReLU(inplace=True)
      (conv2): Conv2d(256, 256, kernel_size=(3, 3), stride=(1, 1), padding=(1, 1), bias=False)
      (bn2): BatchNorm2d(256, eps=1e-05, momentum=0.1, affine=True, track_running_stats=True)
      (downsample): Sequential(
        (0): Conv2d(128, 256, kernel_size=(1, 1), stride=(2, 2), bias=False)
        (1): BatchNorm2d(256, eps=1e-05, momentum=0.1, affine=True, track_running_stats=True)
      )
    )
    (1): BasicBlock(
      (conv1): Conv2d(256, 256, kernel_size=(3, 3), stride=(1, 1), padding=(1, 1), bias=False)
      (bn1): BatchNorm2d(256, eps=1e-05, momentum=0.1, affine=True, track_running_stats=True)
      (relu): ReLU(inplace=True)
      (conv2): Conv2d(256, 256, kernel_size=(3, 3), stride=(1, 1), padding=(1, 1), bias=False)
      (bn2): BatchNorm2d(256, eps=1e-05, momentum=0.1, affine=True, track_running_stats=True)
    )
  )
  (layer4): Sequential(
    (0): BasicBlock(
      (conv1): Conv2d(256, 512, kernel_size=(3, 3), stride=(2, 2), padding=(1, 1), bias=False)
      (bn1): BatchNorm2d(512, eps=1e-05, momentum=0.1, affine=True, track_running_stats=True)
      (relu): ReLU(inplace=True)
      (conv2): Conv2d(512, 512, kernel_size=(3, 3), stride=(1, 1), padding=(1, 1), bias=False)
      (bn2): BatchNorm2d(512, eps=1e-05, momentum=0.1, affine=True, track_running_stats=True)
      (downsample): Sequential(
        (0): Conv2d(256, 512, kernel_size=(1, 1), stride=(2, 2), bias=False)
        (1): BatchNorm2d(512, eps=1e-05, momentum=0.1, affine=True, track_running_stats=True)
      )
    )
    (1): BasicBlock(
      (conv1): Conv2d(512, 512, kernel_size=(3, 3), stride=(1, 1), padding=(1, 1), bias=False)
      (bn1): BatchNorm2d(512, eps=1e-05, momentum=0.1, affine=True, track_running_stats=True)
      (relu): ReLU(inplace=True)
      (conv2): Conv2d(512, 512, kernel_size=(3, 3), stride=(1, 1), padding=(1, 1), bias=False)
      (bn2): BatchNorm2d(512, eps=1e-05, momentum=0.1, affine=True, track_running_stats=True)
    )
  )
  (avgpool): AdaptiveAvgPool2d(output_size=(1, 1))
  (fc): Identity()
)
resnet18
loss: 2.6202516555786133 lr: 0.005
final server model: top1 42.751736111111114, top5 75.26041666666667
loss: 0.9073004126548767 lr: 0.005
loss: 0.6791529059410095 lr: 0.005
loss: 0.07646337151527405 lr: 0.005
loss: 0.08829298615455627 lr: 0.005
…
loss: 0.011720352806150913 lr: 0.005
loss: 0.013440832495689392 lr: 0.005
final server model: top1 66.62326388888889, top5 88.75868055555556
loss: 0.012167304754257202 lr: 0.005
loss: 0.015694446861743927 lr: 0.005
loss: 0.011747506447136402 lr: 0.005
loss: 0.0057195452973246574 lr: 0.005
loss: 0.006763489451259375 lr: 0.005
final server model: top1 66.36284722222223, top5 88.15104166666667
loss: 0.01821519061923027 lr: 0.005
loss: 0.006758850067853928 lr: 0.005
loss: 0.006307089235633612 lr: 0.005
loss: 0.00611863611266017 lr: 0.005
final server model: top1 66.36284722222223, top5 88.36805555555556
ResNet(
  (conv1): Conv2d(3, 64, kernel_size=(7, 7), stride=(2, 2), padding=(3, 3), bias=False)
  (bn1): BatchNorm2d(64, eps=1e-05, momentum=0.1, affine=True, track_running_stats=True)
  (relu): ReLU(inplace=True)
  (maxpool): MaxPool2d(kernel_size=3, stride=2, padding=1, dilation=1, ceil_mode=False)
  (layer1): Sequential(
    (0): BasicBlock(
      (conv1): Conv2d(64, 64, kernel_size=(3, 3), stride=(1, 1), padding=(1, 1), bias=False)
      (bn1): BatchNorm2d(64, eps=1e-05, momentum=0.1, affine=True, track_running_stats=True)
      (relu): ReLU(inplace=True)
      (conv2): Conv2d(64, 64, kernel_size=(3, 3), stride=(1, 1), padding=(1, 1), bias=False)
      (bn2): BatchNorm2d(64, eps=1e-05, momentum=0.1, affine=True, track_running_stats=True)
    )
    (1): BasicBlock(
      (conv1): Conv2d(64, 64, kernel_size=(3, 3), stride=(1, 1), padding=(1, 1), bias=False)
      (bn1): BatchNorm2d(64, eps=1e-05, momentum=0.1, affine=True, track_running_stats=True)
      (relu): ReLU(inplace=True)
      (conv2): Conv2d(64, 64, kernel_size=(3, 3), stride=(1, 1), padding=(1, 1), bias=False)
      (bn2): BatchNorm2d(64, eps=1e-05, momentum=0.1, affine=True, track_running_stats=True)
    )
    (2): BasicBlock(
      (conv1): Conv2d(64, 64, kernel_size=(3, 3), stride=(1, 1), padding=(1, 1), bias=False)
      (bn1): BatchNorm2d(64, eps=1e-05, momentum=0.1, affine=True, track_running_stats=True)
      (relu): ReLU(inplace=True)
      (conv2): Conv2d(64, 64, kernel_size=(3, 3), stride=(1, 1), padding=(1, 1), bias=False)
      (bn2): BatchNorm2d(64, eps=1e-05, momentum=0.1, affine=True, track_running_stats=True)
    )
  )
  (layer2): Sequential(
    (0): BasicBlock(
      (conv1): Conv2d(64, 128, kernel_size=(3, 3), stride=(2, 2), padding=(1, 1), bias=False)
      (bn1): BatchNorm2d(128, eps=1e-05, momentum=0.1, affine=True, track_running_stats=True)
      (relu): ReLU(inplace=True)
      (conv2): Conv2d(128, 128, kernel_size=(3, 3), stride=(1, 1), padding=(1, 1), bias=False)
      (bn2): BatchNorm2d(128, eps=1e-05, momentum=0.1, affine=True, track_running_stats=True)
      (downsample): Sequential(
        (0): Conv2d(64, 128, kernel_size=(1, 1), stride=(2, 2), bias=False)
        (1): BatchNorm2d(128, eps=1e-05, momentum=0.1, affine=True, track_running_stats=True)
      )
    )
    (1): BasicBlock(
      (conv1): Conv2d(128, 128, kernel_size=(3, 3), stride=(1, 1), padding=(1, 1), bias=False)
      (bn1): BatchNorm2d(128, eps=1e-05, momentum=0.1, affine=True, track_running_stats=True)
      (relu): ReLU(inplace=True)
      (conv2): Conv2d(128, 128, kernel_size=(3, 3), stride=(1, 1), padding=(1, 1), bias=False)
      (bn2): BatchNorm2d(128, eps=1e-05, momentum=0.1, affine=True, track_running_stats=True)
    )
    (2): BasicBlock(
      (conv1): Conv2d(128, 128, kernel_size=(3, 3), stride=(1, 1), padding=(1, 1), bias=False)
      (bn1): BatchNorm2d(128, eps=1e-05, momentum=0.1, affine=True, track_running_stats=True)
      (relu): ReLU(inplace=True)
      (conv2): Conv2d(128, 128, kernel_size=(3, 3), stride=(1, 1), padding=(1, 1), bias=False)
      (bn2): BatchNorm2d(128, eps=1e-05, momentum=0.1, affine=True, track_running_stats=True)
    )
    (3): BasicBlock(
      (conv1): Conv2d(128, 128, kernel_size=(3, 3), stride=(1, 1), padding=(1, 1), bias=False)
      (bn1): BatchNorm2d(128, eps=1e-05, momentum=0.1, affine=True, track_running_stats=True)
      (relu): ReLU(inplace=True)
      (conv2): Conv2d(128, 128, kernel_size=(3, 3), stride=(1, 1), padding=(1, 1), bias=False)
      (bn2): BatchNorm2d(128, eps=1e-05, momentum=0.1, affine=True, track_running_stats=True)
    )
  )
  (layer3): Sequential(
    (0): BasicBlock(
      (conv1): Conv2d(128, 256, kernel_size=(3, 3), stride=(2, 2), padding=(1, 1), bias=False)
      (bn1): BatchNorm2d(256, eps=1e-05, momentum=0.1, affine=True, track_running_stats=True)
      (relu): ReLU(inplace=True)
      (conv2): Conv2d(256, 256, kernel_size=(3, 3), stride=(1, 1), padding=(1, 1), bias=False)
      (bn2): BatchNorm2d(256, eps=1e-05, momentum=0.1, affine=True, track_running_stats=True)
      (downsample): Sequential(
        (0): Conv2d(128, 256, kernel_size=(1, 1), stride=(2, 2), bias=False)
        (1): BatchNorm2d(256, eps=1e-05, momentum=0.1, affine=True, track_running_stats=True)
      )
    )
    (1): BasicBlock(
      (conv1): Conv2d(256, 256, kernel_size=(3, 3), stride=(1, 1), padding=(1, 1), bias=False)
      (bn1): BatchNorm2d(256, eps=1e-05, momentum=0.1, affine=True, track_running_stats=True)
      (relu): ReLU(inplace=True)
      (conv2): Conv2d(256, 256, kernel_size=(3, 3), stride=(1, 1), padding=(1, 1), bias=False)
      (bn2): BatchNorm2d(256, eps=1e-05, momentum=0.1, affine=True, track_running_stats=True)
    )
    (2): BasicBlock(
      (conv1): Conv2d(256, 256, kernel_size=(3, 3), stride=(1, 1), padding=(1, 1), bias=False)
      (bn1): BatchNorm2d(256, eps=1e-05, momentum=0.1, affine=True, track_running_stats=True)
      (relu): ReLU(inplace=True)
      (conv2): Conv2d(256, 256, kernel_size=(3, 3), stride=(1, 1), padding=(1, 1), bias=False)
      (bn2): BatchNorm2d(256, eps=1e-05, momentum=0.1, affine=True, track_running_stats=True)
    )
    (3): BasicBlock(
      (conv1): Conv2d(256, 256, kernel_size=(3, 3), stride=(1, 1), padding=(1, 1), bias=False)
      (bn1): BatchNorm2d(256, eps=1e-05, momentum=0.1, affine=True, track_running_stats=True)
      (relu): ReLU(inplace=True)
      (conv2): Conv2d(256, 256, kernel_size=(3, 3), stride=(1, 1), padding=(1, 1), bias=False)
      (bn2): BatchNorm2d(256, eps=1e-05, momentum=0.1, affine=True, track_running_stats=True)
    )
    (4): BasicBlock(
      (conv1): Conv2d(256, 256, kernel_size=(3, 3), stride=(1, 1), padding=(1, 1), bias=False)
      (bn1): BatchNorm2d(256, eps=1e-05, momentum=0.1, affine=True, track_running_stats=True)
      (relu): ReLU(inplace=True)
      (conv2): Conv2d(256, 256, kernel_size=(3, 3), stride=(1, 1), padding=(1, 1), bias=False)
      (bn2): BatchNorm2d(256, eps=1e-05, momentum=0.1, affine=True, track_running_stats=True)
    )
    (5): BasicBlock(
      (conv1): Conv2d(256, 256, kernel_size=(3, 3), stride=(1, 1), padding=(1, 1), bias=False)
      (bn1): BatchNorm2d(256, eps=1e-05, momentum=0.1, affine=True, track_running_stats=True)
      (relu): ReLU(inplace=True)
      (conv2): Conv2d(256, 256, kernel_size=(3, 3), stride=(1, 1), padding=(1, 1), bias=False)
      (bn2): BatchNorm2d(256, eps=1e-05, momentum=0.1, affine=True, track_running_stats=True)
    )
  )
  (layer4): Sequential(
    (0): BasicBlock(
      (conv1): Conv2d(256, 512, kernel_size=(3, 3), stride=(2, 2), padding=(1, 1), bias=False)
      (bn1): BatchNorm2d(512, eps=1e-05, momentum=0.1, affine=True, track_running_stats=True)
      (relu): ReLU(inplace=True)
      (conv2): Conv2d(512, 512, kernel_size=(3, 3), stride=(1, 1), padding=(1, 1), bias=False)
      (bn2): BatchNorm2d(512, eps=1e-05, momentum=0.1, affine=True, track_running_stats=True)
      (downsample): Sequential(
        (0): Conv2d(256, 512, kernel_size=(1, 1), stride=(2, 2), bias=False)
        (1): BatchNorm2d(512, eps=1e-05, momentum=0.1, affine=True, track_running_stats=True)
      )
    )
    (1): BasicBlock(
      (conv1): Conv2d(512, 512, kernel_size=(3, 3), stride=(1, 1), padding=(1, 1), bias=False)
      (bn1): BatchNorm2d(512, eps=1e-05, momentum=0.1, affine=True, track_running_stats=True)
      (relu): ReLU(inplace=True)
      (conv2): Conv2d(512, 512, kernel_size=(3, 3), stride=(1, 1), padding=(1, 1), bias=False)
      (bn2): BatchNorm2d(512, eps=1e-05, momentum=0.1, affine=True, track_running_stats=True)
    )
    (2): BasicBlock(
      (conv1): Conv2d(512, 512, kernel_size=(3, 3), stride=(1, 1), padding=(1, 1), bias=False)
      (bn1): BatchNorm2d(512, eps=1e-05, momentum=0.1, affine=True, track_running_stats=True)
      (relu): ReLU(inplace=True)
      (conv2): Conv2d(512, 512, kernel_size=(3, 3), stride=(1, 1), padding=(1, 1), bias=False)
      (bn2): BatchNorm2d(512, eps=1e-05, momentum=0.1, affine=True, track_running_stats=True)
    )
  )
  (avgpool): AdaptiveAvgPool2d(output_size=(1, 1))
  (fc): Identity()
)
resnet34
loss: 1.6391476392745972 lr: 0.005
final server model: top1 66.04166666666667, top5 88.515625
loss: 0.5275782346725464 lr: 0.005
loss: 0.16585250198841095 lr: 0.005
loss: 0.057283759117126465 lr: 0.005
loss: 0.03141282871365547 lr: 0.005
loss: 0.013967558741569519 lr: 0.005
…
loss: 0.005826500244438648 lr: 0.005
final server model: top1 78.75, top5 94.16666666666667
loss: 0.004172289278358221 lr: 0.005
loss: 0.004346368834376335 lr: 0.005
loss: 0.006260262802243233 lr: 0.005
loss: 0.007787303999066353 lr: 0.005
loss: 0.004277934320271015 lr: 0.005
final server model: top1 78.80208333333333, top5 94.140625
loss: 0.002922816900536418 lr: 0.005
loss: 0.006718706339597702 lr: 0.005
loss: 0.003826030297204852 lr: 0.005
loss: 0.0028356595430523157 lr: 0.005
final server model: top1 78.72395833333333, top5 94.11458333333333
MobileNetV2(
  (features): Sequential(
    (0): Conv2dNormActivation(
      (0): Conv2d(3, 32, kernel_size=(3, 3), stride=(2, 2), padding=(1, 1), bias=False)
      (1): BatchNorm2d(32, eps=1e-05, momentum=0.1, affine=True, track_running_stats=True)
      (2): ReLU6(inplace=True)
    )
    (1): InvertedResidual(
      (conv): Sequential(
        (0): Conv2dNormActivation(
          (0): Conv2d(32, 32, kernel_size=(3, 3), stride=(1, 1), padding=(1, 1), groups=32, bias=False)
          (1): BatchNorm2d(32, eps=1e-05, momentum=0.1, affine=True, track_running_stats=True)
          (2): ReLU6(inplace=True)
        )
        (1): Conv2d(32, 16, kernel_size=(1, 1), stride=(1, 1), bias=False)
        (2): BatchNorm2d(16, eps=1e-05, momentum=0.1, affine=True, track_running_stats=True)
      )
    )
    (2): InvertedResidual(
      (conv): Sequential(
        (0): Conv2dNormActivation(
          (0): Conv2d(16, 96, kernel_size=(1, 1), stride=(1, 1), bias=False)
          (1): BatchNorm2d(96, eps=1e-05, momentum=0.1, affine=True, track_running_stats=True)
          (2): ReLU6(inplace=True)
        )
        (1): Conv2dNormActivation(
          (0): Conv2d(96, 96, kernel_size=(3, 3), stride=(2, 2), padding=(1, 1), groups=96, bias=False)
          (1): BatchNorm2d(96, eps=1e-05, momentum=0.1, affine=True, track_running_stats=True)
          (2): ReLU6(inplace=True)
        )
        (2): Conv2d(96, 24, kernel_size=(1, 1), stride=(1, 1), bias=False)
        (3): BatchNorm2d(24, eps=1e-05, momentum=0.1, affine=True, track_running_stats=True)
      )
    )
    (3): InvertedResidual(
      (conv): Sequential(
        (0): Conv2dNormActivation(
          (0): Conv2d(24, 144, kernel_size=(1, 1), stride=(1, 1), bias=False)
          (1): BatchNorm2d(144, eps=1e-05, momentum=0.1, affine=True, track_running_stats=True)
          (2): ReLU6(inplace=True)
        )
        (1): Conv2dNormActivation(
          (0): Conv2d(144, 144, kernel_size=(3, 3), stride=(1, 1), padding=(1, 1), groups=144, bias=False)
          (1): BatchNorm2d(144, eps=1e-05, momentum=0.1, affine=True, track_running_stats=True)
          (2): ReLU6(inplace=True)
        )
        (2): Conv2d(144, 24, kernel_size=(1, 1), stride=(1, 1), bias=False)
        (3): BatchNorm2d(24, eps=1e-05, momentum=0.1, affine=True, track_running_stats=True)
      )
    )
    (4): InvertedResidual(
      (conv): Sequential(
        (0): Conv2dNormActivation(
          (0): Conv2d(24, 144, kernel_size=(1, 1), stride=(1, 1), bias=False)
          (1): BatchNorm2d(144, eps=1e-05, momentum=0.1, affine=True, track_running_stats=True)
          (2): ReLU6(inplace=True)
        )
        (1): Conv2dNormActivation(
          (0): Conv2d(144, 144, kernel_size=(3, 3), stride=(2, 2), padding=(1, 1), groups=144, bias=False)
          (1): BatchNorm2d(144, eps=1e-05, momentum=0.1, affine=True, track_running_stats=True)
          (2): ReLU6(inplace=True)
        )
        (2): Conv2d(144, 32, kernel_size=(1, 1), stride=(1, 1), bias=False)
        (3): BatchNorm2d(32, eps=1e-05, momentum=0.1, affine=True, track_running_stats=True)
      )
    )
    (5): InvertedResidual(
      (conv): Sequential(
        (0): Conv2dNormActivation(
          (0): Conv2d(32, 192, kernel_size=(1, 1), stride=(1, 1), bias=False)
          (1): BatchNorm2d(192, eps=1e-05, momentum=0.1, affine=True, track_running_stats=True)
          (2): ReLU6(inplace=True)
        )
        (1): Conv2dNormActivation(
          (0): Conv2d(192, 192, kernel_size=(3, 3), stride=(1, 1), padding=(1, 1), groups=192, bias=False)
          (1): BatchNorm2d(192, eps=1e-05, momentum=0.1, affine=True, track_running_stats=True)
          (2): ReLU6(inplace=True)
        )
        (2): Conv2d(192, 32, kernel_size=(1, 1), stride=(1, 1), bias=False)
        (3): BatchNorm2d(32, eps=1e-05, momentum=0.1, affine=True, track_running_stats=True)
      )
    )
    (6): InvertedResidual(
      (conv): Sequential(
        (0): Conv2dNormActivation(
          (0): Conv2d(32, 192, kernel_size=(1, 1), stride=(1, 1), bias=False)
          (1): BatchNorm2d(192, eps=1e-05, momentum=0.1, affine=True, track_running_stats=True)
          (2): ReLU6(inplace=True)
        )
        (1): Conv2dNormActivation(
          (0): Conv2d(192, 192, kernel_size=(3, 3), stride=(1, 1), padding=(1, 1), groups=192, bias=False)
          (1): BatchNorm2d(192, eps=1e-05, momentum=0.1, affine=True, track_running_stats=True)
          (2): ReLU6(inplace=True)
        )
        (2): Conv2d(192, 32, kernel_size=(1, 1), stride=(1, 1), bias=False)
        (3): BatchNorm2d(32, eps=1e-05, momentum=0.1, affine=True, track_running_stats=True)
      )
    )
    (7): InvertedResidual(
      (conv): Sequential(
        (0): Conv2dNormActivation(
          (0): Conv2d(32, 192, kernel_size=(1, 1), stride=(1, 1), bias=False)
          (1): BatchNorm2d(192, eps=1e-05, momentum=0.1, affine=True, track_running_stats=True)
          (2): ReLU6(inplace=True)
        )
        (1): Conv2dNormActivation(
          (0): Conv2d(192, 192, kernel_size=(3, 3), stride=(2, 2), padding=(1, 1), groups=192, bias=False)
          (1): BatchNorm2d(192, eps=1e-05, momentum=0.1, affine=True, track_running_stats=True)
          (2): ReLU6(inplace=True)
        )
        (2): Conv2d(192, 64, kernel_size=(1, 1), stride=(1, 1), bias=False)
        (3): BatchNorm2d(64, eps=1e-05, momentum=0.1, affine=True, track_running_stats=True)
      )
    )
    (8): InvertedResidual(
      (conv): Sequential(
        (0): Conv2dNormActivation(
          (0): Conv2d(64, 384, kernel_size=(1, 1), stride=(1, 1), bias=False)
          (1): BatchNorm2d(384, eps=1e-05, momentum=0.1, affine=True, track_running_stats=True)
          (2): ReLU6(inplace=True)
        )
        (1): Conv2dNormActivation(
          (0): Conv2d(384, 384, kernel_size=(3, 3), stride=(1, 1), padding=(1, 1), groups=384, bias=False)
          (1): BatchNorm2d(384, eps=1e-05, momentum=0.1, affine=True, track_running_stats=True)
          (2): ReLU6(inplace=True)
        )
        (2): Conv2d(384, 64, kernel_size=(1, 1), stride=(1, 1), bias=False)
        (3): BatchNorm2d(64, eps=1e-05, momentum=0.1, affine=True, track_running_stats=True)
      )
    )
    (9): InvertedResidual(
      (conv): Sequential(
        (0): Conv2dNormActivation(
          (0): Conv2d(64, 384, kernel_size=(1, 1), stride=(1, 1), bias=False)
          (1): BatchNorm2d(384, eps=1e-05, momentum=0.1, affine=True, track_running_stats=True)
          (2): ReLU6(inplace=True)
        )
        (1): Conv2dNormActivation(
          (0): Conv2d(384, 384, kernel_size=(3, 3), stride=(1, 1), padding=(1, 1), groups=384, bias=False)
          (1): BatchNorm2d(384, eps=1e-05, momentum=0.1, affine=True, track_running_stats=True)
          (2): ReLU6(inplace=True)
        )
        (2): Conv2d(384, 64, kernel_size=(1, 1), stride=(1, 1), bias=False)
        (3): BatchNorm2d(64, eps=1e-05, momentum=0.1, affine=True, track_running_stats=True)
      )
    )
    (10): InvertedResidual(
      (conv): Sequential(
        (0): Conv2dNormActivation(
          (0): Conv2d(64, 384, kernel_size=(1, 1), stride=(1, 1), bias=False)
          (1): BatchNorm2d(384, eps=1e-05, momentum=0.1, affine=True, track_running_stats=True)
          (2): ReLU6(inplace=True)
        )
        (1): Conv2dNormActivation(
          (0): Conv2d(384, 384, kernel_size=(3, 3), stride=(1, 1), padding=(1, 1), groups=384, bias=False)
          (1): BatchNorm2d(384, eps=1e-05, momentum=0.1, affine=True, track_running_stats=True)
          (2): ReLU6(inplace=True)
        )
        (2): Conv2d(384, 64, kernel_size=(1, 1), stride=(1, 1), bias=False)
        (3): BatchNorm2d(64, eps=1e-05, momentum=0.1, affine=True, track_running_stats=True)
      )
    )
    (11): InvertedResidual(
      (conv): Sequential(
        (0): Conv2dNormActivation(
          (0): Conv2d(64, 384, kernel_size=(1, 1), stride=(1, 1), bias=False)
          (1): BatchNorm2d(384, eps=1e-05, momentum=0.1, affine=True, track_running_stats=True)
          (2): ReLU6(inplace=True)
        )
        (1): Conv2dNormActivation(
          (0): Conv2d(384, 384, kernel_size=(3, 3), stride=(1, 1), padding=(1, 1), groups=384, bias=False)
          (1): BatchNorm2d(384, eps=1e-05, momentum=0.1, affine=True, track_running_stats=True)
          (2): ReLU6(inplace=True)
        )
        (2): Conv2d(384, 96, kernel_size=(1, 1), stride=(1, 1), bias=False)
        (3): BatchNorm2d(96, eps=1e-05, momentum=0.1, affine=True, track_running_stats=True)
      )
    )
    (12): InvertedResidual(
      (conv): Sequential(
        (0): Conv2dNormActivation(
          (0): Conv2d(96, 576, kernel_size=(1, 1), stride=(1, 1), bias=False)
          (1): BatchNorm2d(576, eps=1e-05, momentum=0.1, affine=True, track_running_stats=True)
          (2): ReLU6(inplace=True)
        )
        (1): Conv2dNormActivation(
          (0): Conv2d(576, 576, kernel_size=(3, 3), stride=(1, 1), padding=(1, 1), groups=576, bias=False)
          (1): BatchNorm2d(576, eps=1e-05, momentum=0.1, affine=True, track_running_stats=True)
          (2): ReLU6(inplace=True)
        )
        (2): Conv2d(576, 96, kernel_size=(1, 1), stride=(1, 1), bias=False)
        (3): BatchNorm2d(96, eps=1e-05, momentum=0.1, affine=True, track_running_stats=True)
      )
    )
    (13): InvertedResidual(
      (conv): Sequential(
        (0): Conv2dNormActivation(
          (0): Conv2d(96, 576, kernel_size=(1, 1), stride=(1, 1), bias=False)
          (1): BatchNorm2d(576, eps=1e-05, momentum=0.1, affine=True, track_running_stats=True)
          (2): ReLU6(inplace=True)
        )
        (1): Conv2dNormActivation(
          (0): Conv2d(576, 576, kernel_size=(3, 3), stride=(1, 1), padding=(1, 1), groups=576, bias=False)
          (1): BatchNorm2d(576, eps=1e-05, momentum=0.1, affine=True, track_running_stats=True)
          (2): ReLU6(inplace=True)
        )
        (2): Conv2d(576, 96, kernel_size=(1, 1), stride=(1, 1), bias=False)
        (3): BatchNorm2d(96, eps=1e-05, momentum=0.1, affine=True, track_running_stats=True)
      )
    )
    (14): InvertedResidual(
      (conv): Sequential(
        (0): Conv2dNormActivation(
          (0): Conv2d(96, 576, kernel_size=(1, 1), stride=(1, 1), bias=False)
          (1): BatchNorm2d(576, eps=1e-05, momentum=0.1, affine=True, track_running_stats=True)
          (2): ReLU6(inplace=True)
        )
        (1): Conv2dNormActivation(
          (0): Conv2d(576, 576, kernel_size=(3, 3), stride=(2, 2), padding=(1, 1), groups=576, bias=False)
          (1): BatchNorm2d(576, eps=1e-05, momentum=0.1, affine=True, track_running_stats=True)
          (2): ReLU6(inplace=True)
        )
        (2): Conv2d(576, 160, kernel_size=(1, 1), stride=(1, 1), bias=False)
        (3): BatchNorm2d(160, eps=1e-05, momentum=0.1, affine=True, track_running_stats=True)
      )
    )
    (15): InvertedResidual(
      (conv): Sequential(
        (0): Conv2dNormActivation(
          (0): Conv2d(160, 960, kernel_size=(1, 1), stride=(1, 1), bias=False)
          (1): BatchNorm2d(960, eps=1e-05, momentum=0.1, affine=True, track_running_stats=True)
          (2): ReLU6(inplace=True)
        )
        (1): Conv2dNormActivation(
          (0): Conv2d(960, 960, kernel_size=(3, 3), stride=(1, 1), padding=(1, 1), groups=960, bias=False)
          (1): BatchNorm2d(960, eps=1e-05, momentum=0.1, affine=True, track_running_stats=True)
          (2): ReLU6(inplace=True)
        )
        (2): Conv2d(960, 160, kernel_size=(1, 1), stride=(1, 1), bias=False)
        (3): BatchNorm2d(160, eps=1e-05, momentum=0.1, affine=True, track_running_stats=True)
      )
    )
    (16): InvertedResidual(
      (conv): Sequential(
        (0): Conv2dNormActivation(
          (0): Conv2d(160, 960, kernel_size=(1, 1), stride=(1, 1), bias=False)
          (1): BatchNorm2d(960, eps=1e-05, momentum=0.1, affine=True, track_running_stats=True)
          (2): ReLU6(inplace=True)
        )
        (1): Conv2dNormActivation(
          (0): Conv2d(960, 960, kernel_size=(3, 3), stride=(1, 1), padding=(1, 1), groups=960, bias=False)
          (1): BatchNorm2d(960, eps=1e-05, momentum=0.1, affine=True, track_running_stats=True)
          (2): ReLU6(inplace=True)
        )
        (2): Conv2d(960, 160, kernel_size=(1, 1), stride=(1, 1), bias=False)
        (3): BatchNorm2d(160, eps=1e-05, momentum=0.1, affine=True, track_running_stats=True)
      )
    )
    (17): InvertedResidual(
      (conv): Sequential(
        (0): Conv2dNormActivation(
          (0): Conv2d(160, 960, kernel_size=(1, 1), stride=(1, 1), bias=False)
          (1): BatchNorm2d(960, eps=1e-05, momentum=0.1, affine=True, track_running_stats=True)
          (2): ReLU6(inplace=True)
        )
        (1): Conv2dNormActivation(
          (0): Conv2d(960, 960, kernel_size=(3, 3), stride=(1, 1), padding=(1, 1), groups=960, bias=False)
          (1): BatchNorm2d(960, eps=1e-05, momentum=0.1, affine=True, track_running_stats=True)
          (2): ReLU6(inplace=True)
        )
        (2): Conv2d(960, 320, kernel_size=(1, 1), stride=(1, 1), bias=False)
        (3): BatchNorm2d(320, eps=1e-05, momentum=0.1, affine=True, track_running_stats=True)
      )
    )
    (18): Conv2dNormActivation(
      (0): Conv2d(320, 1280, kernel_size=(1, 1), stride=(1, 1), bias=False)
      (1): BatchNorm2d(1280, eps=1e-05, momentum=0.1, affine=True, track_running_stats=True)
      (2): ReLU6(inplace=True)
    )
  )
  (classifier): Sequential(
    (0): Dropout(p=0.2, inplace=False)
    (1): Identity()
  )
)
mobilenetv2
loss: 2.0338282585144043 lr: 0.005
final server model: top1 54.02644230769231, top5 84.34495192307692
loss: 1.128876805305481 lr: 0.005
loss: 0.8882215023040771 lr: 0.005
loss: 0.17044095695018768 lr: 0.005
…
loss: 0.0062012565322220325 lr: 0.005
final server model: top1 70.64302884615384, top5 91.22596153846153
loss: 0.010864237323403358 lr: 0.005
loss: 0.007687231991440058 lr: 0.005
loss: 0.006802033167332411 lr: 0.005
loss: 0.005681683775037527 lr: 0.005
loss: 0.005966355558484793 lr: 0.005
final server model: top1 70.55288461538461, top5 91.43629807692308
loss: 0.00921777542680502 lr: 0.005
loss: 0.004103612154722214 lr: 0.005
loss: 0.0045610228553414345 lr: 0.005
loss: 0.008378858678042889 lr: 0.005
final server model: top1 70.22235576923077, top5 91.2860576923077
VGG(
  (features): Sequential(
    (0): Conv2d(3, 64, kernel_size=(3, 3), stride=(1, 1), padding=(1, 1))
    (1): ReLU(inplace=True)
    (2): Conv2d(64, 64, kernel_size=(3, 3), stride=(1, 1), padding=(1, 1))
    (3): ReLU(inplace=True)
    (4): MaxPool2d(kernel_size=2, stride=2, padding=0, dilation=1, ceil_mode=False)
    (5): Conv2d(64, 128, kernel_size=(3, 3), stride=(1, 1), padding=(1, 1))
    (6): ReLU(inplace=True)
    (7): Conv2d(128, 128, kernel_size=(3, 3), stride=(1, 1), padding=(1, 1))
    (8): ReLU(inplace=True)
    (9): MaxPool2d(kernel_size=2, stride=2, padding=0, dilation=1, ceil_mode=False)
    (10): Conv2d(128, 256, kernel_size=(3, 3), stride=(1, 1), padding=(1, 1))
    (11): ReLU(inplace=True)
    (12): Conv2d(256, 256, kernel_size=(3, 3), stride=(1, 1), padding=(1, 1))
    (13): ReLU(inplace=True)
    (14): Conv2d(256, 256, kernel_size=(3, 3), stride=(1, 1), padding=(1, 1))
    (15): ReLU(inplace=True)
    (16): MaxPool2d(kernel_size=2, stride=2, padding=0, dilation=1, ceil_mode=False)
    (17): Conv2d(256, 512, kernel_size=(3, 3), stride=(1, 1), padding=(1, 1))
    (18): ReLU(inplace=True)
    (19): Conv2d(512, 512, kernel_size=(3, 3), stride=(1, 1), padding=(1, 1))
    (20): ReLU(inplace=True)
    (21): Conv2d(512, 512, kernel_size=(3, 3), stride=(1, 1), padding=(1, 1))
    (22): ReLU(inplace=True)
    (23): MaxPool2d(kernel_size=2, stride=2, padding=0, dilation=1, ceil_mode=False)
    (24): Conv2d(512, 512, kernel_size=(3, 3), stride=(1, 1), padding=(1, 1))
    (25): ReLU(inplace=True)
    (26): Conv2d(512, 512, kernel_size=(3, 3), stride=(1, 1), padding=(1, 1))
    (27): ReLU(inplace=True)
    (28): Conv2d(512, 512, kernel_size=(3, 3), stride=(1, 1), padding=(1, 1))
    (29): ReLU(inplace=True)
    (30): MaxPool2d(kernel_size=2, stride=2, padding=0, dilation=1, ceil_mode=False)
  )
  (avgpool): AdaptiveAvgPool2d(output_size=(7, 7))
  (classifier): Sequential(
    (0): Linear(in_features=25088, out_features=4096, bias=True)
    (1): ReLU(inplace=True)
    (2): Dropout(p=0.5, inplace=False)
    (3): Linear(in_features=4096, out_features=4096, bias=True)
    (4): ReLU(inplace=True)
    (5): Dropout(p=0.5, inplace=False)
    (6): Identity()
  )
)
vgg16
loss: 2.5426485538482666 lr: 0.005
final server model: top1 36.9140625, top5 71.97265625
loss: 1.7423667907714844 lr: 0.005
loss: 0.78725665807724 lr: 0.005
loss: 0.8169558644294739 lr: 0.005
loss: 0.8462422490119934 lr: 0.005
loss: 0.7616759538650513 lr: 0.005
…
loss: 0.05630595237016678 lr: 0.005
loss: 0.41895556449890137 lr: 0.005
final server model: top1 55.95703125, top5 82.6171875
loss: 0.05913698300719261 lr: 0.005
loss: 0.01414420548826456 lr: 0.005
loss: 0.19748246669769287 lr: 0.005
loss: 0.012980461120605469 lr: 0.005
loss: 0.007875164970755577 lr: 0.005
final server model: top1 61.23046875, top5 84.228515625
loss: 0.09725866466760635 lr: 0.005
loss: 0.05906044691801071 lr: 0.005
loss: 0.20577405393123627 lr: 0.005
loss: 0.042184267193078995 lr: 0.005
final server model: top1 59.033203125, top5 83.59375
ShuffleNetV2(
  (conv1): Sequential(
    (0): Conv2d(3, 24, kernel_size=(3, 3), stride=(2, 2), padding=(1, 1), bias=False)
    (1): BatchNorm2d(24, eps=1e-05, momentum=0.1, affine=True, track_running_stats=True)
    (2): ReLU(inplace=True)
  )
  (maxpool): MaxPool2d(kernel_size=3, stride=2, padding=1, dilation=1, ceil_mode=False)
  (stage2): Sequential(
    (0): InvertedResidual(
      (branch1): Sequential(
        (0): Conv2d(24, 24, kernel_size=(3, 3), stride=(2, 2), padding=(1, 1), groups=24, bias=False)
        (1): BatchNorm2d(24, eps=1e-05, momentum=0.1, affine=True, track_running_stats=True)
        (2): Conv2d(24, 58, kernel_size=(1, 1), stride=(1, 1), bias=False)
        (3): BatchNorm2d(58, eps=1e-05, momentum=0.1, affine=True, track_running_stats=True)
        (4): ReLU(inplace=True)
      )
      (branch2): Sequential(
        (0): Conv2d(24, 58, kernel_size=(1, 1), stride=(1, 1), bias=False)
        (1): BatchNorm2d(58, eps=1e-05, momentum=0.1, affine=True, track_running_stats=True)
        (2): ReLU(inplace=True)
        (3): Conv2d(58, 58, kernel_size=(3, 3), stride=(2, 2), padding=(1, 1), groups=58, bias=False)
        (4): BatchNorm2d(58, eps=1e-05, momentum=0.1, affine=True, track_running_stats=True)
        (5): Conv2d(58, 58, kernel_size=(1, 1), stride=(1, 1), bias=False)
        (6): BatchNorm2d(58, eps=1e-05, momentum=0.1, affine=True, track_running_stats=True)
        (7): ReLU(inplace=True)
      )
    )
    (1): InvertedResidual(
      (branch1): Sequential()
      (branch2): Sequential(
        (0): Conv2d(58, 58, kernel_size=(1, 1), stride=(1, 1), bias=False)
        (1): BatchNorm2d(58, eps=1e-05, momentum=0.1, affine=True, track_running_stats=True)
        (2): ReLU(inplace=True)
        (3): Conv2d(58, 58, kernel_size=(3, 3), stride=(1, 1), padding=(1, 1), groups=58, bias=False)
        (4): BatchNorm2d(58, eps=1e-05, momentum=0.1, affine=True, track_running_stats=True)
        (5): Conv2d(58, 58, kernel_size=(1, 1), stride=(1, 1), bias=False)
        (6): BatchNorm2d(58, eps=1e-05, momentum=0.1, affine=True, track_running_stats=True)
        (7): ReLU(inplace=True)
      )
    )
    (2): InvertedResidual(
      (branch1): Sequential()
      (branch2): Sequential(
        (0): Conv2d(58, 58, kernel_size=(1, 1), stride=(1, 1), bias=False)
        (1): BatchNorm2d(58, eps=1e-05, momentum=0.1, affine=True, track_running_stats=True)
        (2): ReLU(inplace=True)
        (3): Conv2d(58, 58, kernel_size=(3, 3), stride=(1, 1), padding=(1, 1), groups=58, bias=False)
        (4): BatchNorm2d(58, eps=1e-05, momentum=0.1, affine=True, track_running_stats=True)
        (5): Conv2d(58, 58, kernel_size=(1, 1), stride=(1, 1), bias=False)
        (6): BatchNorm2d(58, eps=1e-05, momentum=0.1, affine=True, track_running_stats=True)
        (7): ReLU(inplace=True)
      )
    )
    (3): InvertedResidual(
      (branch1): Sequential()
      (branch2): Sequential(
        (0): Conv2d(58, 58, kernel_size=(1, 1), stride=(1, 1), bias=False)
        (1): BatchNorm2d(58, eps=1e-05, momentum=0.1, affine=True, track_running_stats=True)
        (2): ReLU(inplace=True)
        (3): Conv2d(58, 58, kernel_size=(3, 3), stride=(1, 1), padding=(1, 1), groups=58, bias=False)
        (4): BatchNorm2d(58, eps=1e-05, momentum=0.1, affine=True, track_running_stats=True)
        (5): Conv2d(58, 58, kernel_size=(1, 1), stride=(1, 1), bias=False)
        (6): BatchNorm2d(58, eps=1e-05, momentum=0.1, affine=True, track_running_stats=True)
        (7): ReLU(inplace=True)
      )
    )
  )
  (stage3): Sequential(
    (0): InvertedResidual(
      (branch1): Sequential(
        (0): Conv2d(116, 116, kernel_size=(3, 3), stride=(2, 2), padding=(1, 1), groups=116, bias=False)
        (1): BatchNorm2d(116, eps=1e-05, momentum=0.1, affine=True, track_running_stats=True)
        (2): Conv2d(116, 116, kernel_size=(1, 1), stride=(1, 1), bias=False)
        (3): BatchNorm2d(116, eps=1e-05, momentum=0.1, affine=True, track_running_stats=True)
        (4): ReLU(inplace=True)
      )
      (branch2): Sequential(
        (0): Conv2d(116, 116, kernel_size=(1, 1), stride=(1, 1), bias=False)
        (1): BatchNorm2d(116, eps=1e-05, momentum=0.1, affine=True, track_running_stats=True)
        (2): ReLU(inplace=True)
        (3): Conv2d(116, 116, kernel_size=(3, 3), stride=(2, 2), padding=(1, 1), groups=116, bias=False)
        (4): BatchNorm2d(116, eps=1e-05, momentum=0.1, affine=True, track_running_stats=True)
        (5): Conv2d(116, 116, kernel_size=(1, 1), stride=(1, 1), bias=False)
        (6): BatchNorm2d(116, eps=1e-05, momentum=0.1, affine=True, track_running_stats=True)
        (7): ReLU(inplace=True)
      )
    )
    (1): InvertedResidual(
      (branch1): Sequential()
      (branch2): Sequential(
        (0): Conv2d(116, 116, kernel_size=(1, 1), stride=(1, 1), bias=False)
        (1): BatchNorm2d(116, eps=1e-05, momentum=0.1, affine=True, track_running_stats=True)
        (2): ReLU(inplace=True)
        (3): Conv2d(116, 116, kernel_size=(3, 3), stride=(1, 1), padding=(1, 1), groups=116, bias=False)
        (4): BatchNorm2d(116, eps=1e-05, momentum=0.1, affine=True, track_running_stats=True)
        (5): Conv2d(116, 116, kernel_size=(1, 1), stride=(1, 1), bias=False)
        (6): BatchNorm2d(116, eps=1e-05, momentum=0.1, affine=True, track_running_stats=True)
        (7): ReLU(inplace=True)
      )
    )
    (2): InvertedResidual(
      (branch1): Sequential()
      (branch2): Sequential(
        (0): Conv2d(116, 116, kernel_size=(1, 1), stride=(1, 1), bias=False)
        (1): BatchNorm2d(116, eps=1e-05, momentum=0.1, affine=True, track_running_stats=True)
        (2): ReLU(inplace=True)
        (3): Conv2d(116, 116, kernel_size=(3, 3), stride=(1, 1), padding=(1, 1), groups=116, bias=False)
        (4): BatchNorm2d(116, eps=1e-05, momentum=0.1, affine=True, track_running_stats=True)
        (5): Conv2d(116, 116, kernel_size=(1, 1), stride=(1, 1), bias=False)
        (6): BatchNorm2d(116, eps=1e-05, momentum=0.1, affine=True, track_running_stats=True)
        (7): ReLU(inplace=True)
      )
    )
    (3): InvertedResidual(
      (branch1): Sequential()
      (branch2): Sequential(
        (0): Conv2d(116, 116, kernel_size=(1, 1), stride=(1, 1), bias=False)
        (1): BatchNorm2d(116, eps=1e-05, momentum=0.1, affine=True, track_running_stats=True)
        (2): ReLU(inplace=True)
        (3): Conv2d(116, 116, kernel_size=(3, 3), stride=(1, 1), padding=(1, 1), groups=116, bias=False)
        (4): BatchNorm2d(116, eps=1e-05, momentum=0.1, affine=True, track_running_stats=True)
        (5): Conv2d(116, 116, kernel_size=(1, 1), stride=(1, 1), bias=False)
        (6): BatchNorm2d(116, eps=1e-05, momentum=0.1, affine=True, track_running_stats=True)
        (7): ReLU(inplace=True)
      )
    )
    (4): InvertedResidual(
      (branch1): Sequential()
      (branch2): Sequential(
        (0): Conv2d(116, 116, kernel_size=(1, 1), stride=(1, 1), bias=False)
        (1): BatchNorm2d(116, eps=1e-05, momentum=0.1, affine=True, track_running_stats=True)
        (2): ReLU(inplace=True)
        (3): Conv2d(116, 116, kernel_size=(3, 3), stride=(1, 1), padding=(1, 1), groups=116, bias=False)
        (4): BatchNorm2d(116, eps=1e-05, momentum=0.1, affine=True, track_running_stats=True)
        (5): Conv2d(116, 116, kernel_size=(1, 1), stride=(1, 1), bias=False)
        (6): BatchNorm2d(116, eps=1e-05, momentum=0.1, affine=True, track_running_stats=True)
        (7): ReLU(inplace=True)
      )
    )
    (5): InvertedResidual(
      (branch1): Sequential()
      (branch2): Sequential(
        (0): Conv2d(116, 116, kernel_size=(1, 1), stride=(1, 1), bias=False)
        (1): BatchNorm2d(116, eps=1e-05, momentum=0.1, affine=True, track_running_stats=True)
        (2): ReLU(inplace=True)
        (3): Conv2d(116, 116, kernel_size=(3, 3), stride=(1, 1), padding=(1, 1), groups=116, bias=False)
        (4): BatchNorm2d(116, eps=1e-05, momentum=0.1, affine=True, track_running_stats=True)
        (5): Conv2d(116, 116, kernel_size=(1, 1), stride=(1, 1), bias=False)
        (6): BatchNorm2d(116, eps=1e-05, momentum=0.1, affine=True, track_running_stats=True)
        (7): ReLU(inplace=True)
      )
    )
    (6): InvertedResidual(
      (branch1): Sequential()
      (branch2): Sequential(
        (0): Conv2d(116, 116, kernel_size=(1, 1), stride=(1, 1), bias=False)
        (1): BatchNorm2d(116, eps=1e-05, momentum=0.1, affine=True, track_running_stats=True)
        (2): ReLU(inplace=True)
        (3): Conv2d(116, 116, kernel_size=(3, 3), stride=(1, 1), padding=(1, 1), groups=116, bias=False)
        (4): BatchNorm2d(116, eps=1e-05, momentum=0.1, affine=True, track_running_stats=True)
        (5): Conv2d(116, 116, kernel_size=(1, 1), stride=(1, 1), bias=False)
        (6): BatchNorm2d(116, eps=1e-05, momentum=0.1, affine=True, track_running_stats=True)
        (7): ReLU(inplace=True)
      )
    )
    (7): InvertedResidual(
      (branch1): Sequential()
      (branch2): Sequential(
        (0): Conv2d(116, 116, kernel_size=(1, 1), stride=(1, 1), bias=False)
        (1): BatchNorm2d(116, eps=1e-05, momentum=0.1, affine=True, track_running_stats=True)
        (2): ReLU(inplace=True)
        (3): Conv2d(116, 116, kernel_size=(3, 3), stride=(1, 1), padding=(1, 1), groups=116, bias=False)
        (4): BatchNorm2d(116, eps=1e-05, momentum=0.1, affine=True, track_running_stats=True)
        (5): Conv2d(116, 116, kernel_size=(1, 1), stride=(1, 1), bias=False)
        (6): BatchNorm2d(116, eps=1e-05, momentum=0.1, affine=True, track_running_stats=True)
        (7): ReLU(inplace=True)
      )
    )
  )
  (stage4): Sequential(
    (0): InvertedResidual(
      (branch1): Sequential(
        (0): Conv2d(232, 232, kernel_size=(3, 3), stride=(2, 2), padding=(1, 1), groups=232, bias=False)
        (1): BatchNorm2d(232, eps=1e-05, momentum=0.1, affine=True, track_running_stats=True)
        (2): Conv2d(232, 232, kernel_size=(1, 1), stride=(1, 1), bias=False)
        (3): BatchNorm2d(232, eps=1e-05, momentum=0.1, affine=True, track_running_stats=True)
        (4): ReLU(inplace=True)
      )
      (branch2): Sequential(
        (0): Conv2d(232, 232, kernel_size=(1, 1), stride=(1, 1), bias=False)
        (1): BatchNorm2d(232, eps=1e-05, momentum=0.1, affine=True, track_running_stats=True)
        (2): ReLU(inplace=True)
        (3): Conv2d(232, 232, kernel_size=(3, 3), stride=(2, 2), padding=(1, 1), groups=232, bias=False)
        (4): BatchNorm2d(232, eps=1e-05, momentum=0.1, affine=True, track_running_stats=True)
        (5): Conv2d(232, 232, kernel_size=(1, 1), stride=(1, 1), bias=False)
        (6): BatchNorm2d(232, eps=1e-05, momentum=0.1, affine=True, track_running_stats=True)
        (7): ReLU(inplace=True)
      )
    )
    (1): InvertedResidual(
      (branch1): Sequential()
      (branch2): Sequential(
        (0): Conv2d(232, 232, kernel_size=(1, 1), stride=(1, 1), bias=False)
        (1): BatchNorm2d(232, eps=1e-05, momentum=0.1, affine=True, track_running_stats=True)
        (2): ReLU(inplace=True)
        (3): Conv2d(232, 232, kernel_size=(3, 3), stride=(1, 1), padding=(1, 1), groups=232, bias=False)
        (4): BatchNorm2d(232, eps=1e-05, momentum=0.1, affine=True, track_running_stats=True)
        (5): Conv2d(232, 232, kernel_size=(1, 1), stride=(1, 1), bias=False)
        (6): BatchNorm2d(232, eps=1e-05, momentum=0.1, affine=True, track_running_stats=True)
        (7): ReLU(inplace=True)
      )
    )
    (2): InvertedResidual(
      (branch1): Sequential()
      (branch2): Sequential(
        (0): Conv2d(232, 232, kernel_size=(1, 1), stride=(1, 1), bias=False)
        (1): BatchNorm2d(232, eps=1e-05, momentum=0.1, affine=True, track_running_stats=True)
        (2): ReLU(inplace=True)
        (3): Conv2d(232, 232, kernel_size=(3, 3), stride=(1, 1), padding=(1, 1), groups=232, bias=False)
        (4): BatchNorm2d(232, eps=1e-05, momentum=0.1, affine=True, track_running_stats=True)
        (5): Conv2d(232, 232, kernel_size=(1, 1), stride=(1, 1), bias=False)
        (6): BatchNorm2d(232, eps=1e-05, momentum=0.1, affine=True, track_running_stats=True)
        (7): ReLU(inplace=True)
      )
    )
    (3): InvertedResidual(
      (branch1): Sequential()
      (branch2): Sequential(
        (0): Conv2d(232, 232, kernel_size=(1, 1), stride=(1, 1), bias=False)
        (1): BatchNorm2d(232, eps=1e-05, momentum=0.1, affine=True, track_running_stats=True)
        (2): ReLU(inplace=True)
        (3): Conv2d(232, 232, kernel_size=(3, 3), stride=(1, 1), padding=(1, 1), groups=232, bias=False)
        (4): BatchNorm2d(232, eps=1e-05, momentum=0.1, affine=True, track_running_stats=True)
        (5): Conv2d(232, 232, kernel_size=(1, 1), stride=(1, 1), bias=False)
        (6): BatchNorm2d(232, eps=1e-05, momentum=0.1, affine=True, track_running_stats=True)
        (7): ReLU(inplace=True)
      )
    )
  )
  (conv5): Sequential(
    (0): Conv2d(464, 1024, kernel_size=(1, 1), stride=(1, 1), bias=False)
    (1): BatchNorm2d(1024, eps=1e-05, momentum=0.1, affine=True, track_running_stats=True)
    (2): ReLU(inplace=True)
  )
  (fc): Identity()
)
shufflenet
loss: 4.092396259307861 lr: 0.005
final server model: top1 1.484375, top5 9.322916666666666
loss: 4.095130443572998 lr: 0.005
loss: 4.081491470336914 lr: 0.005
loss: 4.0783891677856445 lr: 0.005
loss: 4.081993103027344 lr: 0.005
loss: 4.0817179679870605 lr: 0.005
final server model: top1 8.776041666666666, top5 26.744791666666668
…
